drift_uncertainty_net.pt (torch, 21629 bytes, 6 tensors)

backbone.0.weight f4 [64, 3]
00000000: 139e e63d 1ab3 073f 9c76 97be c27f e3bd
00000010: 72e4 febe 8746 bcbe 6f91 38be 84ae 663e
00000020: 1c02 773d e3db 0abe b146 0ebf 4ed0 853d
00000030: d767 7a3e 744b 5d3c c1a6 abbe 8d44 883e
00000040: 5155 ecbe 4e98 21be c8ae f6bb 2a0f 02bf
00000050: 683f c1be 8f36 d03e 7344 183e d441 9cbd
00000060: b4fa bfbe b816 3f3d 88c0 0abf e739 93be
00000070: e292 27be ff78 4cbe c487 093f 49c4 4ebd
00000080: a2bd a0be f24c 0f3f 54ec e53d 5f4a cfbe
00000090: 4c04 0dbf 9bf2 f1be ba3a 65be 4183 4dbe
000000a0: 8109 9f3e dd19 0ebf e795 50be 5e83 dabd
000000b0: ebc7 053f 0f46 593d f20d 1e3e a4fc 91bd
000000c0: f23e 6ebe 359a 803e 80b0 683e f13b 913e
000000d0: 4e5e 0f3e 8dab d4be 259e ee3e 18cd b9be
000000e0: 3d71 4abe 2cd1 e7be 9d8b 853d 5912 d6be
000000f0: fe86 013f 8477 3d3e a7af d63d a1da b7be
00000100: bcf5 073e 9fc2 733e 59ff 323e ff3e 6ebd
00000110: 513c f93d d899 353e e44b 793c 9ea1 c93e
00000120: 51c3 983e 7526 1a3d 71f9 263e f59d febb
00000130: 5bc1 083f 3de0 603e f9d6 b23e b1f1 0dbd
00000140: 0840 e23e 0c70 c2bc 019d 043f befb d5be
00000150: 7a5c eb3e fdb6 49be 2ccd 493d dbde f53d
00000160: 00aa 9cb8 ec34 943e 634f babd d93b c4be
00000170: 3e6e 943e 8608 86bd c78b 103f ed6e f2be
00000180: 1d4f 943d 7a3d 5b3e de41 853e 93f6 71bd
00000190: e4d9 e3be 1b23 2dbe 5871 11bf 1d71 c1be
000001a0: 2b39 61bc 27ab 06bf f6d4 e5be 3671 2d3e
000001b0: 7b07 3a3e d077 233e 0ef9 683d 4414 5dbe
000001c0: 769f a4bc 2065 853e fcca 8d3d 1289 ffbe
000001d0: 9bca aa3e 261f b53e 2e9f c13d 8149 a33e
000001e0: ee36 893e ab31 ab3e 81fb ff3e 932f acbd
000001f0: b1a5 403d 695a 80bd 9ae7 f2be 382a f13e
00000200: afc4 093f 79d4 bdbe 22a4 b63c 0e9b b1bc
00000210: efd7 abbe f8bf 7dbe 0110 e2bc ed4d e3be
00000220: 6eb4 813d 5a7e 113f 8999 563e 9522 c83c
00000230: c52c 043f 8129 6cbe 58c0 f3be 9d5c 813e
00000240: 071b 0ebf b6d0 58be 0416 a03e ad56 d5be
00000250: 96ce 843e fd98 fdbe 5e9a c8be 8716 7ebe
00000260: 999a 94be 51cd a6bc c812 88be ba1d 0fbf
00000270: 7931 813e 5443 9fbe 24bd 1fbc a13e edbd
00000280: a206 9c3c e583 cf3d 62f5 95be a385 4cbe
00000290: f5dd 8f3e 6fc6 9dbc 2058 3d3e 4e02 0a3f
000002a0: eff8 783e 52c0 51be 711c 00bf 2dd4 b33e
000002b0: b0f9 f53e 62da 823e a1ec b1be 2722 a6be
000002c0: 371a 1f3e ae55 48be 13e1 973b aa26 313e
000002d0: 624c 88be 8603 f1be d1a4 073e b1b0 113f
000002e0: c0ef e73e b29f e0be 2a3f e5be 69da f83d
000002f0: ed0f d6be 5947 f93e 7554 bf3e d6b1 d13d
0.11260619 0.5300766 -0.2958268 -0.11108352 -0.49783665 -0.36772558 -0.18024229 0.2252751
0.060304746 -0.13560443 -0.55576617 0.065338716 0.24453674 0.013506759 -0.3352566 0.266148
-0.4615884 -0.15780756 -0.00752816 -0.5080439 -0.37743688 0.40666625 0.14869861 -0.07629743
-0.3749596 0.046652526 -0.5420003 -0.28755113 -0.16364625 -0.19968031 0.53722787 -0.05048016
-0.31394678 0.55976784 0.11226717 -0.40486428 -0.5508468 -0.47255406 -0.22385684 -0.200696
0.31061938 -0.55508214 -0.20369683 -0.106695876 0.52258176 0.05304533 0.15435007 -0.071282655
-0.23266199 0.2511765 0.2272358 0.28366044 0.14000818 -0.41537133 0.4660503 -0.36289287
-0.1976976 -0.45276773 0.0652077 -0.41810873 0.50596607 0.18502623 0.10482722 -0.35908988
0.13277334 0.23804711 0.1748022 -0.058165547 0.121697076 0.17734468 0.015215848 0.39381117
0.29836515 0.03763433 0.16306092 -0.007770295 0.5342004 0.2196054 0.34929636 -0.034654323
0.44189477 -0.023735069 0.5180207 -0.41793627 0.45968992 -0.1969871 0.049267933 0.12005397
-7.4703246e-05 0.28946626 -0.09097173 -0.3832691 0.28990358 -0.065445945 0.56463283 -0.47350255
0.07241652 0.2141017 0.26026815 -0.059073042 -0.44502175 -0.16907923 -0.56813574 -0.3778161
-0.01374654 -0.5260491 -0.4488904 0.16937718 0.18166916 0.15963674 0.056878142 -0.21589762
-0.020095568 0.26053715 0.06923482 -0.49909264 0.333577 0.35375327 0.09454189 0.31892017
0.2679972 0.3343633 0.4999657 -0.084075116 0.047033016 -0.06267244 -0.47442323 0.47102523
0.5381574 -0.37076166 0.022295061 -0.021680381 -0.33563182 -0.24780262 -0.027595522 -0.4439539
0.06333242 0.5683342 0.20957007 0.024430552 0.5163081 -0.23062707 -0.47607684 0.2526597
-0.5550999 -0.21173367 0.31266797 -0.4166769 0.25938863 -0.49530783 -0.39180273 -0.24813281
-0.290242 -0.020361574 -0.2657683 -0.55904734 0.25233057 -0.31106055 -0.0097496845 -0.11584211
0.019046132 0.10132579 -0.29288775 -0.19972853 0.28099027 -0.01925966 0.18490648 0.53909767
0.2431371 -0.2048352 -0.500434 0.35122815 0.4804206 0.25557238 -0.34750846 -0.3244793
0.15537344 -0.19563934 0.0046349852 0.17299905 -0.26620775 -0.47073 0.13246466 0.56910235
0.45300102 -0.43871838 -0.44774753 0.121510334 -0.41809025 0.48687246 0.37369123 0.10238998

backbone.0.bias f4 [64]
00000000: 5502 c13e 7b00 6abe b84d 263e 1c5e 7b3e
00000010: 5475 57be 92e6 e9bd 43ee 8dbe 04d7 b4be
00000020: 3039 423b 0580 dcbe 97fa dd3e 2305 3e3e
00000030: 24dd 083f de40 433e d389 90be aa3e f1be
00000040: 6622 38be a710 b1be 8a17 043f 7975 083f
00000050: 0558 b13e 738e 0c3f b818 9a3e 3d6b 00bf
00000060: d1da c1be 823f cebe ed10 08be 45ea 06bf
00000070: bdc2 fe3e f8d7 073f b4a8 90be 71f9 1e3e
00000080: a54f 6f3e d8a9 7dbe 44fe fb3e 64cb ee3d
00000090: aeb9 a13e 2fa5 bbbe ee67 d9be ee62 e73d
000000a0: e600 cbbd 7400 dbbe 229f 57be 5271 86be
000000b0: 1a51 99be 019f 313e 637b 5cbc ba8b 6fbe
000000c0: 3262 69be 8359 0d3f 0598 de3e 7c34 ac3e
000000d0: f843 f7be dd51 24be 20cb 29be 9354 5abe
000000e0: 2182 07bf 717a 55be 54d6 e13e 51f3 06bf
000000f0: 3cdf b63c 0d61 053f a826 80be 5a1e 04bf
0.37697092 -0.22851746 0.16240585 0.24547619 -0.21040851 -0.11420931 -0.27720842 -0.35320294
0.0029636137 -0.4306642 0.43355247 0.18556647 0.53462434 0.19067714 -0.28230152 -0.4711812
-0.17981872 -0.34583017 0.5159842 0.5330425 0.34637466 0.5490486 0.30096984 -0.5016363
-0.37862256 -0.40282828 -0.13287707 -0.52701217 0.4975795 0.5306392 -0.2825371 0.15524842
0.23370226 -0.24771821 0.49217427 0.116598874 0.31586975 -0.36649463 -0.42462105 0.11298166
-0.09912281 -0.42773783 -0.21056798 -0.26258332 -0.29944688 0.17345811 -0.013457152 -0.23393145
-0.22791365 0.5521471 0.43475357 0.33633792 -0.48294044 -0.16046853 -0.16581392 -0.21321325
-0.52932936 -0.20847489 0.44108832 -0.5271502 0.022323243 0.5210121 -0.25029492 -0.5160881

backbone.2.weight f4 [64, 64]
00000000: 8011 403b 00dd 533d 14d5 d8bd 707c 9ebd
00000010: 58a5 973c 3ee1 a8bd 2c13 2c3d 60a3 0c3d
00000020: 84f5 033d b401 c93d e857 7f3d e0f4 e03d
00000030: 1a50 aa3d 0836 98bc 4eda e03d 7482 ff3d
00000040: 3650 b43d 9884 853c e009 a7bc b0bf 2fbd
00000050: 84c6 11bd 90a8 9f3c 001c 243d d0ab d63c
00000060: e0b7 8a3d f876 98bc e01a 09bd 40de 833c
00000070: c0c3 ec3d 9425 8d3d 1ec8 ddbd 3472 f13d
00000080: 18bf 78bd 9c0d 7b3d 10cb fbbd f8f0 953d
00000090: 6069 ebbc eaba 9b3d 50fb 36bd 38a7 fcbd
000000a0: f40c 65bd 84c7 a3bd c428 343d 7419 90bd
000000b0: a295 e5bd 4818 253d b28d e7bd d055 5f3d
000000c0: 82e7 a1bd 4e5c c0bd fede ddbd b049 40bd
000000d0: c884 b13d 183f 97bc 447a 5c3d 8006 843c
000000e0: 2855 aabd f821 f4bc 58f9 043d ba26 863d
000000f0: a04c 893c 7c93 79bd 381c 82bd 1ad7 d1bd
00000100: 7df2 62bd c0f2 d73d c3ed 5abd 7257 d03d
00000110: aa9b 9c3d 287d 883d 3ed2 dabd d442 53bd
00000120: 7034 6fbd 1818 943c 6007 87bc b085 a33c
00000130: 0253 a1bd 54dd 17bc 859b bb3c d8fe 173d
00000140: e5e0 36bc 4070 9b3d 018f d8bc ce7e 13bd
00000150: bc08 953d fbfb 9e3c 97cc f43d 9478 bf3d
00000160: c2b0 ce3d 2050 a2bd 79ce 803d b2fc fb3d
00000170: de6c 843d 20a8 e0bd 0e18 9d3d 60eb 8d3d
00000180: c7a4 c03d bc82 5ebd 9ec9 91bd b9ea 453d
00000190: 1494 83bd 3fda a53c e555 163d f5ca 47bd
000001a0: 8127 773c 78d6 b3bc b26a 4abd 8098 00bc
000001b0: 2003 0abc 5c57 853d 66ed 6fbd 154a ed3d
000001c0: 996a e03d 2659 d5bd 9818 de3d 00a2 413d
000001d0: c2ce f1bd 0e94 8e3d a18b c63d 28b4 5cbd
000001e0: 8cc7 fdbd e210 d1bd 9265 dfbd 6067 263d
000001f0: cb2f c53d 0dcf f4bd 869d e43d 7c38 9abd
00000200: 0f6e 51bc 00f0 27bc 8761 ccbd d440 fd3d
00000210: 0c96 173d 30df 3abc 1ebe efbd 16b5 c63d
00000220: e0d6 eabc 089f f2bd 77ff 03be eae6 bdbd
00000230: d599 fcbb 6ed5 50bd d23a 8dbd 08d2 d93c
00000240: caa8 4dbb 9038 8f3d 7e5e 6dbd 7962 04be
00000250: 8b03 863d 77f1 823d 2212 c8bd 1ab1 2abc
00000260: 6463 8d3d a06b d43d d171 58bd d473 963d
00000270: 471a ef3d e998 023d ce07 f73d e8fb b9bc
00000280: 3b88 df3d 706f 8f3c 0903 9bbd 5b8c 9f3d
00000290: 8dbc 29bd 6a82 87bd 7f12 8e3c 6c94 983d
000002a0: fa76 eabd a803 95bc f9be 363d e46d 35bd
000002b0: 40a8 4a3c 4a89 88bd 2e8c f93d 803b 063d
000002c0: 48b1 373d bda8 87bc aada 6f3d 53ff e7bd
000002d0: d4b2 debd 976b bd3d 2941 85bc bfe9 8ebd
000002e0: 1afc 8a3d 90ac 82bc 877b 643d 7ccf e33d
000002f0: fce6 393b 9e09 92bd 0046 d83d f876 bdbd
00000300: 3900 063e 9739 dfbc 98b0 673d 40b6 dd3d
00000310: a7e9 ca3d dad8 653d faea a1bc 8947 abbd
00000320: bd15 5d3d 282e c8bd 28a4 2fbd be71 c93c
00000330: ef3f 4a3c 7be6 8abc 70ee 53bc 93ed 41bd
00000340: 71b3 be3c 0a7e 143d 3733 cb3d ee6b d0bd
00000350: 6850 4d3b 1fc1 98bd 272f 6d3d f642 63bd
00000360: 3d4a 0f3d 71aa 06bd 6035 f53c 6e5c 3f3c
00000370: 8a14 d23c af40 acbd 0790 f43d 84a8 de3d
00000380: 866f 6c3d 3794 96bc baab 3d3d 8aa4 5bbd
00000390: 0e2e 693d d9a6 b9bd f884 91bd fc9b 44bd
000003a0: 02f4 dfbc 7223 b5bd d381 98bc a824 963d
000003b0: c80e 523d bc0b 99bd 70f4 843b a4d9 a8bd
000003c0: 2acd a4bd 1960 ea3d 9791 bc3d cdaa 87bd
000003d0: 00fd 073b 03a0 9cbd c00f 36bd 456a f9bd
000003e0: c88c dd3d 12a1 9c3d 41bf f83d d8c4 cc3c
000003f0: 3322 733d 97b6 35bd b0c9 9c3d c03b 813d
0.0029307306 0.051724434 -0.105875164 -0.07738578 0.01851146 -0.082460865 0.04201047 0.034335494
0.032216564 0.09814778 0.062339693 0.10984206 0.083160594 -0.018580452 0.10979138 0.12476054
0.088043615 0.016298577 -0.020390451 -0.042907417 -0.03558971 0.019489557 0.040065765 0.026204973
0.067733526 -0.018611416 -0.033472896 0.016097188 0.11560774 0.06891933 -0.10829185 0.11789361
-0.060729116 0.061292276 -0.122945905 0.07321352 -0.02873677 0.076040104 -0.044673264 -0.12336582
-0.055920556 -0.07997039 0.04398419 -0.07036105 -0.11210181 0.04030636 -0.11306323 0.054525197
-0.07905485 -0.09392606 -0.10833548 -0.046945274 0.08667904 -0.018462703 0.05382754 0.01611638
-0.083170235 -0.029801354 0.032464355 0.06550355 0.01676017 -0.060931668 -0.063530385 -0.102461055
-0.055407036 0.10544348 -0.053449403 0.10172929 0.07646878 0.06664497 -0.10684632 -0.051577404
-0.058399618 0.018077895 -0.016483009 0.019961208 -0.078771606 -0.009269077 0.022901306 0.037108272
-0.0111620175 0.07589769 -0.026435377 -0.036009602 0.072770566 0.019407263 0.11953085 0.0934917
0.100923076 -0.07925439 0.062893815 0.12304057 0.06466077 -0.10969567 0.07670604 0.0692966
0.09406429 -0.054323897 -0.071185336 0.048319552 -0.06424728 0.02024567 0.03670301 -0.04877754
0.015085102 -0.021952853 -0.04941816 -0.007848859 -0.008423597 0.06510803 -0.05857601 0.11586396
0.10957832 -0.10417394 0.10844535 0.047273636 -0.11807014 0.06961833 0.09694601 -0.053882748
-0.12391576 -0.10208298 -0.10908045 0.04062593 0.096282564 -0.11953554 0.11162858 -0.07530305
-0.012782588 -0.010250092 -0.09979539 0.123658806 0.03700833 -0.011405751 -0.11706184 0.09702508
-0.028666914 -0.11846739 -0.12890421 -0.09272559 -0.007708768 -0.050984792 -0.06895985 0.026589409
-0.0031381124 0.0699321 -0.057951443 -0.1292819 0.065436445 0.06393712 -0.097690836 -0.010418201
0.06903723 0.1037209 -0.05284292 0.07346311 0.11674934 0.031884108 0.120620355 -0.022703126
0.10914656 0.017509192 -0.07568938 0.077904426 -0.04143958 -0.066166714 0.017342804 0.07450184
-0.11448474 -0.01819022 0.04461572 -0.044294253 0.0123692155 -0.06666811 0.1218494 0.032771587
0.044846803 -0.016559953 0.058558144 -0.11327996 -0.108739525 0.09249037 -0.016266422 -0.06978177
0.06786366 -0.015951425 0.055781867 0.11123559 0.0028366437 -0.071307406 0.105602264 -0.09251207
0.13086022 -0.02724914 0.056564897 0.10825777 0.09907847 0.05611501 -0.019765366 -0.083632536
0.05397581 -0.097744286 -0.04288116 0.02459037 0.0123443445 -0.016955605 -0.012935266 -0.04734571
0.023278924 0.036253013 0.09921878 -0.10176836 0.0031328443 -0.0745871 0.057906296 -0.05548378
0.03498291 -0.03287739 0.029932678 0.011679752 0.02564456 -0.08410775 0.119415335 0.108719856
0.057723545 -0.018381221 0.04630635 -0.053623714 0.056928687 -0.09065027 -0.0710544 -0.04800032
-0.027338032 -0.08844651 -0.018616593 0.073312104 0.051283628 -0.07472941 0.0040574595 -0.08244637
-0.080469444 0.114441104 0.092074566 -0.066243745 0.0020750165 -0.07647707 -0.044448614 -0.121784724
0.108178675 0.07647909 0.12145854 0.024996206 0.059358787 -0.044363584 0.07655656 0.063102245

backbone.2.bias f4 [64]
00000000: 8818 97bd 05d9 cd3c 40cd 48bd 5acb 083e
00000010: 084a 833d dab4 d6bd f298 893d 9c3b f83d
00000020: 0165 143d 56a1 1d3d f665 a5bd 594a 983d
00000030: a154 edbd fe6f bd3d 61d1 b0bd bc59 a1bd
00000040: d3a7 a03d 97dd d43d e68e 9abc 4195 89bb
00000050: 8bca 9c3d e49a 8fbd cef5 e5bd 385a 7bbd
00000060: f0c5 57bd 895d 0a3d d011 6ebd a0f2 c0bd
00000070: 2168 c83c c4f7 b13d 5d9a ebbd e541 a33d
00000080: 6418 46bd ae36 a23d d5aa e2bc 126a 273d
00000090: 466a a3bb 76b8 96bd c080 5fbb 5e10 51bd
000000a0: d14e c3bd ca33 61bd ea21 6a3b 25e3 67bd
000000b0: 4ae0 d53d 9c36 073c d0dc 3fbd b8b0 bcbd
000000c0: 5523 ed3d 5f9c 343d af2c 963d 5dbf f53b
000000d0: af3d 4abd 4c3d a1bc 1dbe 8f3b 5de5 e6bd
000000e0: 9079 f1bd 406c 7abd 44b4 16bd bcf3 c1bd
000000f0: 1dcb 013b 4aa7 26bd a0fe 653c 3a3c d33d
-0.07377726 0.025127897 -0.049023867 0.13358822 0.06410605 -0.104837134 0.06718625 0.121207446
0.036229137 0.03848394 -0.08076088 0.07436056 -0.11588407 0.092498764 -0.08633686 -0.078784436
0.0784451 0.103938274 -0.018866967 -0.0041987007 0.076558195 -0.07011965 -0.11228524 -0.061365336
-0.052679002 0.03378061 -0.058122456 -0.09421277 0.024463715 0.08689836 -0.11504052 0.07971553
-0.048363104 0.079205856 -0.02766935 0.04087264 -0.004987034 -0.07359402 -0.003410384 -0.051041
-0.095365174 -0.05498103 0.003572578 -0.056613106 0.1044317 0.008252766 -0.046841443 -0.09213394
0.11579005 0.04409444 0.073327415 0.007499619 -0.049375232 -0.019682549 0.004386677 -0.11274216
-0.11790764 -0.06113839 -0.03679301 -0.09470317 0.0019804903 -0.040686883 0.014037758 0.10314222

head.weight f4 [2, 64]
00000000: be01 80bd 1bad 0c3d 8487 ec3d dea9 36bd
00000010: 9a05 d0bc dc3b 41bd da7a aa3c c668 9c3c
00000020: 9a87 e13d 3c7e b43d c258 f93d 8fa1 e3bc
00000030: 1bdd e13d bb6f 5cbd e1f6 9abc 7f8e e23d
00000040: 0c61 70bd 474b f2bc 2a69 91bd 8530 053d
00000050: 9412 be3d 3cf4 f03d 5fe1 b5bd 8964 9e3d
00000060: 3ccd a7bd 2bcf b4b9 a726 99bd 147a 22bd
00000070: a243 6dbd 70e2 82bd cf82 57bc 0c2e 6dbd
00000080: 709e 39bd 4f9d e2bd b6c9 bf3d 816b 81bc
00000090: 0392 803d 42ed 0e3d 2ce0 2d3d 683a 833c
000000a0: 9494 d53c a0b4 f1bc c61f 7dbc 6723 c03d
000000b0: 4182 5cbd 238f c2bb 45a4 6d3d 50f7 ea3c
000000c0: 7fb7 2abd 278b a33d 7648 debd 6449 da3d
000000d0: da13 ea3d a1eb 853d 2c14 b83d b174 05be
000000e0: 5ef5 a9bd f286 0b3d 8abc dd3d aa7f f0bd
000000f0: cb9d 3abd 7af2 93bd 1279 b6bd 22f3 10bd
00000100: 38b6 66bd 9e45 c83d 601b b83b 1c34 99bd
00000110: 51dd d03d feeb e7bd e3b3 b43b e776 e2bd
00000120: beb7 de3c 5ca4 e83d 303e 1abd 9c54 cc3d
00000130: 06b0 f1bd 1183 db3c 2e83 68bd 2cf4 b83b
00000140: 940c febd e59b af3d 5bd9 543d de8a b3bd
00000150: 808f c23d e57d 23bd d291 ebbd 3ac4 26bd
00000160: 80ef 023d 2c1e 963d a0ba 5d3d 040d b1bd
00000170: 877c 493d 0039 c8bd 47aa 04bc 6413 d9bd
00000180: 6e0f 90bd 5ef4 39bd daa7 403c 61b1 1cbc
00000190: b019 943d db09 e83c 8000 bb3c 004a 5b3c
000001a0: 6b7c 8cba 38e7 bd3d c8fa c53d a9ce 88bc
000001b0: 4a4b d63c 08c6 56bc d7d8 80bd a0bf a2bb
000001c0: 5079 98bd 3de3 b33c afe6 c13c 1b4a fcbd
000001d0: c849 75bc 5604 fcbd 37f4 89bc db68 ab3d
000001e0: 201f aabb d227 c7bd 80f3 c5ba ec57 9bbd
000001f0: bf21 c8bd 45e6 32bd c847 fe3d ee29 c23d
-0.06250332 0.034344774 0.11549285 -0.04459559 -0.025393296 -0.047176227 0.020810533 0.019092929
0.11012192 0.0881314 0.12175132 -0.027786998 0.11028501 -0.053817492 -0.01891655 0.11062335
-0.0586863 -0.02957691 -0.071001366 0.032516975 0.09280887 0.11765334 -0.08880877 0.07734019
-0.08193442 -0.00034486628 -0.074780755 -0.039667204 -0.057925828 -0.06390846 -0.013153746 -0.05790524
-0.045317113 -0.110651605 0.09364645 -0.015798332 0.062778495 0.034894235 0.042450115 0.016019061
0.026071824 -0.029505074 -0.01544947 0.093817525 -0.053835157 -0.0059374734 0.058017988 0.02868238
-0.0416789 0.079855256 -0.108536646 0.106585294 0.11429568 0.06539083 0.089882225 -0.13032795
-0.08298753 0.03406424 0.108269766 -0.117431 -0.04556064 -0.07223983 -0.08909811 -0.03538812
-0.05632612 0.097789034 0.0056184977 -0.07480642 0.10198463 -0.11324309 0.005514608 -0.11057835
0.027187224 0.11359474 -0.037656963 0.099770755 -0.11801152 0.026795896 -0.056765728 0.005644342
-0.12404743 0.085746564 0.0519651 -0.08766721 0.09500027 -0.039914984 -0.115024224 -0.04071448
0.031966686 0.073299736 0.054133058 -0.08645061 0.049191024 -0.09776497 -0.008097238 -0.105994016
-0.07034193 -0.045399062 0.011758769 -0.009563775 0.07231462 0.028325012 0.022827387 0.013384342
-0.0010718232 0.09272617 0.09666973 -0.016700106 0.026158947 -0.013108738 -0.06291359 -0.004966691
-0.074450135 0.021958942 0.023669569 -0.12318822 -0.014971204 -0.123055145 -0.016840084 0.08369609
-0.0051916987 -0.09724392 -0.0015102476 -0.07585129 -0.097720616 -0.043676633 0.12416035 0.09480654

head.bias f4 [2]
00000000: ae8f bb3d 7ae2 b03c
0.09158264 0.021592367
