heuristic_net.pt (torch, 21213 bytes, 5 tensors)

fc1.weight f4 [64, 4]
-0.2074651 -0.31301105 0.83679765 -0.37781933 0.15469 0.0054023163 0.8472058 -0.16428775
0.79531246 0.92669266 -0.6833345 -0.5087964 -0.9138566 0.8325919 -0.25744832 -0.2596547
0.6815268 1.223098 0.05278037 -0.41626057 -0.5214708 0.9530824 -0.18026349 0.07480462
-0.94204044 -0.67356026 0.960117 0.097180925 -0.47779235 0.11112552 0.9882793 -0.5789764
1.0239683 1.0598391 0.19322085 -0.18526284 0.21258877 -0.0007574372 1.1055388 0.15316172
-0.8805419 0.012238673 0.9094563 -0.011476917 0.7289811 0.97951996 0.13837695 -0.38810965
0.44610408 -1.1704627 0.51652807 -0.6325239 -0.28050497 -1.2346213 0.65112954 0.34196654
0.737982 0.5326529 -0.9123185 -0.5484546 -0.95061433 -0.31209445 -0.4117835 -0.03685029
-0.33538458 0.22540179 0.2424614 -0.8557766 1.1577404 0.2363879 0.22766086 0.016909989
0.59982497 -0.9476397 -0.089916416 -0.3527871 -0.3201131 0.7021345 0.23863249 -0.4972107
-0.1026208 0.68687963 1.0513662 -1.0753294 -0.025940266 -0.48762822 0.06328596 0.52452385
0.18791613 -0.13727608 1.0227017 -0.5188036 -0.7813529 -0.2203511 0.6337294 0.53181106
1.1089587 -0.7607165 -0.2508293 -0.30688447 -0.43533787 0.8348042 1.2208242 -0.04807081
-0.4443488 -1.0993137 -0.79785746 0.31970015 0.957265 -0.09035908 0.21473497 -0.072727695
-0.089994445 -0.35487908 -0.84192383 1.0415518 0.42288613 0.87634104 -0.5516153 0.39525795
0.0013174664 -0.67621404 0.001507586 0.69972855 0.825915 0.0026896792 -0.8547814 -0.0004559005
0.009252639 -0.74769115 -0.00597324 0.7723733 -0.08199782 1.4748254 0.87735915 -0.0885406
-1.3972646 -0.6722866 0.57634157 0.34030038 -0.64965296 0.42691496 0.25086328 -0.7292133
0.24238552 0.35290304 1.1260713 0.08512731 -0.28681448 -0.32073787 -0.55410945 -1.1576922
-0.004773926 0.84163857 -0.0024152095 -0.86889225 0.7487082 -0.002102487 -0.77442807 0.006621532
-0.10352049 -0.9507217 -0.11914459 0.29393235 0.003367102 0.62162757 -0.010125442 -0.64099264
-0.48085782 0.22844677 0.43225214 -0.3423372 0.5500031 -0.064225964 -0.50895745 0.63647884
-0.55744904 -0.07554372 0.50199085 0.13155496 0.39495182 0.35489872 -0.8866801 -0.23301588
-0.7926168 -0.022464883 0.80478114 0.013006667 0.035399757 -1.2614989 -0.062035933 -0.6546463
0.548485 0.45348266 -0.36171204 -0.6387296 0.26451802 -0.7302745 0.9816358 0.20645846
-0.2444329 -0.10094941 1.1644903 0.7179324 0.008325009 -0.52273995 -0.00029703177 0.54370564
0.66387063 0.37269405 -0.24388407 -1.0672426 0.96894354 -0.050072394 -1.00543 0.060436487
0.7198473 -0.15651688 -0.1444313 -1.0339724 -0.9796277 0.7424239 0.6168448 -0.21292612
-0.8065001 0.20309745 0.61005026 0.6935628 -0.25780272 1.0596851 -1.157367 0.55750513
0.675254 -0.00037346664 -0.6982599 0.004214737 0.2479934 0.47334045 0.70268446 1.2540693
0.2061614 -1.110763 -0.6346206 0.66746545 -0.23961736 -0.074739315 0.6343132 -0.43630755
-0.16908327 -0.14598277 0.9185855 1.2384346 0.4897571 0.99227 -0.26625916 -0.2553343
00000000: bb71 54be fc42 a0be 5f38 563f 8971 c1be
00000010: 0e67 1e3e ea05 b13b 7be2 583f 0c3b 28be
00000020: 9999 4b3f bb3b 6d3f 03ef 2ebf 7b40 02bf
00000030: 82f2 69bf be24 553f 44d0 83be 76f1 84be
00000040: 8a78 2e3f 7a8e 9c3f 3b30 583d 1b20 d5be
00000050: 1c7f 05bf 35fd 733f fe96 38be 2a33 993d
00000060: 9029 71bf 726e 2cbf 3aca 753f cb06 c73d
00000070: 33a1 f4be c795 e33d dfff 7c3f cc37 14bf
00000080: 6511 833f cfa8 873f b0db 453e 8bb5 3dbe
00000090: dfb0 593e c08e 46ba 4c82 8d3f 6dd6 1c3e
000000a0: 326b 61bf b784 483c 21d2 683f ae09 3cbc
000000b0: 819e 3a3f d2c1 7a3f b0b2 0d3e 4fb6 c6be
000000c0: c167 e43e b9d1 95bf 2f3b 043f 16ed 21bf
000000d0: 599e 8fbe 1208 9ebf 6db0 263f 3d16 af3e
000000e0: 63ec 3c3f f15b 083f b58d 69bf 8567 0cbf
000000f0: 765b 73bf d8ca 9fbe 49d5 d2be 54f0 16bd
00000100: 87b7 abbe bacf 663e cd47 783e 2d14 5bbf
00000110: d630 943f ab0f 723e ee1f 693e d186 8a3c
00000120: 218e 193f 8498 72bf 1926 b8bd 83a0 b4be
00000130: dde5 a3be 16bf 333f 135c 743e 6792 febe
00000140: db2a d2bd 58d7 2f3f 2b93 863f 65a4 89bf
00000150: ae80 d4bc 68aa f9be 129c 813d 3247 063f
00000160: 166d 403e 1a92 0cbe e4e7 823f 50d0 04bf
00000170: be06 48bf b8a3 61be 173c 223f c524 083f
00000180: 5cf2 8d3f 51be 42bf b36c 80be f61f 9dbe
00000190: 9be4 debe bab5 553f f843 9c3f e6e5 44bd
000001a0: b081 e3be 50b6 8cbf 6340 4cbf bdaf a33e
000001b0: 520f 753f 2e0e b9bd 7ce3 5b3e 42f2 94bd
000001c0: 024f b8bd b6b2 b5be 5288 57bf 9251 853f
000001d0: 8884 d83e e357 603f a936 0dbf 405f ca3e
000001e0: d6ae ac3a 5d1c 2dbf 319a c53a 6921 333f
000001f0: 2a6f 533f 5445 303b f4d2 5abf ee05 efb9
00000200: 6198 173c b068 3fbf 2bbb c3bb 42ba 453f
00000210: 79ee a7bd 14c7 bc3f 9c9a 603f c654 b5bd
00000220: 91d9 b2bf fa1a 2cbf 1f8b 133f da3b ae3e
00000230: a84f 26bf 9994 da3e 2771 803e b9ad 3abf
00000240: e933 783e b5af b43e 1b23 903f 3a57 ae3d
00000250: 59d9 92be c137 a4be 1eda 0dbf 422f 94bf
00000260: 986e 9cbb a075 573f 7e48 1ebb b96f 5ebf
00000270: 57ab 3f3f e1c9 09bb eb40 46bf 70f9 d83b
00000280: 8d02 d4bd 7f62 73bf 1402 f4bd 4d7e 963e
00000290: 99aa 5c3b fc22 1f3f 2fe5 25bc 1818 24bf
000002a0: ff32 f6be f3ed 693e 2750 dd3e d246 afbe
000002b0: 01cd 0c3f e788 83bd 094b 02bf 47f0 223f
000002c0: fbb4 0ebf aab6 9abd 7982 003f 58b6 063e
000002d0: 2037 ca3e 49b5 b53e 78fd 62bf b79b 6ebe
000002e0: efe8 4abf 4608 b8bc 2306 4e3f ea19 553c
000002f0: 56ff 103d cc78 a1bf 6419 7ebd e696 27bf
00000300: 8369 0c3f e12e e83e 5232 b9be c883 23bf
00000310: e86e 873e 45f3 3abf 7c4c 7b3f d969 533e
00000320: 9e4c 7abe 90be cebd 050e 953f 6bca 373f
00000330: 9e65 083c 49d2 05bf eeba 9bb9 4b30 0b3f
00000340: 6df3 293f c1d1 be3e bfbc 79be 689b 88bf
00000350: af0c 783f b618 4dbd eeb1 80bf 408c 773d
00000360: ea47 383f f645 20be cce5 13be 3559 84bf
00000370: e2c8 7abf 7e0f 3e3f 8ae9 1d3f 4e09 5abe
00000380: ca76 4ebf c7f8 4f3e 412c 1c3f 558d 313f
00000390: b8fe 83be c3a3 873f 9a24 94bf a8b8 0e3f
000003a0: 72dd 2c3f d8cd c3b9 29c1 32bf c71b 8a3b
000003b0: fbf1 7d3e ae59 f23e 21e3 333f 5885 a03f
000003c0: f91b 533e 7b2d 8ebf 7f76 22bf 04df 2a3f
000003d0: 415e 75be ed10 99bd 5a62 223f b463 dfbe
000003e0: 2a24 2dbe 827c 15be 6b28 6b3f 0685 9e3f
000003f0: 71c1 fa3e 6805 7e3f 1f53 88be 2dbb 82be

fc1.bias f4 [64]
0.71313745 0.65626836 0.26072767 0.35362434 0.3173652 0.5690165 -0.08233165 0.35088927
0.010391445 0.89307773 0.066869736 0.4337507 0.030494938 -0.19384307 0.5168106 0.4121344
0.044741973 0.8723834 0.21382834 -0.04961812 0.36067873 -0.012100129 0.7664767 0.00039332587
0.40252137 0.059083726 0.4741165 0.69370097 0.20589097 0.11393029 -0.027054103 -0.06303729
-0.023651084 0.21594208 -0.1460871 -0.24247698 0.0756618 0.55296284 0.03281056 -0.055324737
0.73148525 0.02496347 -0.075382076 0.9851883 -0.01779757 -0.1581714 0.049430598 0.62711084
0.12507364 -0.11499171 0.22099446 -0.023877714 -0.032748576 -0.07693381 -0.053533673 -0.00677916
0.07620909 -0.0747931 -0.05313469 0.34201917 -0.14104982 0.33362657 0.08430644 0.12610252
00000000: 2d90 363f 3401 283f 197e 853e 400e b53e
00000010: b17d a23e 11ab 113f 7f9d a8bd c2a7 b33e
00000020: e140 2a3c bea0 643f 00f3 883d 9214 de3e
00000030: 85d0 f93c cc7e 46be b34d 043f 4803 d33e
00000040: 5c43 373d 8554 5f3f d1f5 5a3e 5f3c 4bbd
00000050: e2aa b83e 9f3f 46bc d137 443f 4e37 ce39
00000060: 4817 ce3e c701 723d 66bf f23e 6396 313f
00000070: 15d5 523e 4954 e93d 91a0 ddbc b219 81bd
00000080: ebbf c1bc ec1f 5d3e db97 15be e34b 78be
00000090: 93f4 9a3d f98e 0d3f 5e64 063d 319c 62bd
000000a0: 9e42 3b3f 3180 cc3c eb61 9abd 4d35 7c3f
000000b0: 36cc 91bc aff7 21be bd77 4a3d 568a 203f
000000c0: 4e13 003e c680 ebbd 5f4c 623e 329b c3bc
000000d0: 5f23 06bd 798f 9dbd 2046 5bbd b723 debb
000000e0: 8313 9c3d 202d 99bd c3a3 59bd 231d af3e
000000f0: 5d6f 10be 1ad1 aa3e dba8 ac3d 0521 013e

fc2.weight f4 [64, 64]
0.26261663 0.48937693 0.49744 -0.56522536 0.28669348 -0.27586392 0.6134349 0.09436931
0.6664881 0.49933293 0.3328354 0.39036983 1.3363224 0.13327113 0.4713733 -0.63323706
-0.4286071 0.42376032 -0.08592157 -0.18280762 -0.19583167 -0.1396998 0.45303518 0.35985368
0.10479939 -0.18322529 -0.1200878 0.42376125 -0.46133256 0.60152894 -0.053980485 0.11135744
-0.13086645 -0.11243284 0.48851565 -0.8071221 -0.23725149 -0.57042295 -0.0857405 0.13172276
-0.14856654 0.15124181 0.082900636 -0.039460953 0.3329754 0.26393124 0.20842417 -0.67520887
0.24540186 0.3314888 0.19205745 -0.12397041 0.23724358 0.23151468 0.21347202 -0.11352646
0.4215071 0.23336434 0.07552991 0.88225806 -0.5143229 0.21994507 0.28092304 0.22488742
0.21731478 0.08286141 0.30480728 0.33176085 0.10210646 0.19614154 0.30245996 0.27524212
-0.068510264 0.19939886 0.22688285 0.17908527 -0.24560703 0.121805996 0.16115955 0.31573716
0.22073987 0.25054985 0.16265109 0.23588832 0.13686569 0.13169098 0.33496168 0.31673267
0.2675129 0.2258401 0.2844534 0.1071472 0.22247475 0.2097927 -0.01812184 0.17935435
0.17871462 0.046931952 0.4340285 0.41291347 0.46157756 0.19091184 0.16764955 0.13031512
0.30295292 0.17898938 0.23172227 0.20651913 0.23157418 0.39335328 0.2706057 0.17456834
0.22784783 -0.05920811 0.28344423 0.22521745 0.15714726 0.120392255 0.30275837 0.22025068
0.2027714 0.27917698 0.102161884 -0.111077204 0.07249996 0.2569871 0.20859964 0.20584577
0.08704949 -0.12984465 0.059552517 0.041366193 0.06599141 -0.12682767 -0.06296374 0.030965606
-0.121636 -0.076268986 -0.028287232 -0.13751182 0.01796965 0.0039021529 -0.1446183 0.024448525
0.039194707 -0.07909179 -0.07196372 0.08771846 -0.05210386 -0.1102428 -0.13878693 0.0066837748
0.06599226 -0.12432622 0.023070687 0.012829154 -0.10329217 -0.099929765 -0.07428366 0.044573177
0.103815675 -0.12827003 -0.04811219 -0.053447124 -0.052381225 0.06274552 -0.1173366 -0.07008822
-0.0051077185 0.0829661 -0.07930067 -0.0213693 -0.018875316 -0.13118471 -0.009085401 -0.085788764
-0.04108672 -0.02783156 -0.13902776 -0.07814865 0.06080913 0.10711687 0.0038549467 0.037940435
0.034954946 -0.04461494 0.016782245 -0.061437074 -0.06360582 0.026627773 0.016898002 -0.091929205
0.09728026 0.15596682 0.21329764 0.20907444 0.2341722 0.23905393 0.34135956 0.14470167
-0.08470212 0.13891323 0.21720943 0.24922827 -0.2082353 -0.059849616 -0.020796603 0.21247698
0.28317437 0.3362585 0.228219 0.13435951 0.05712069 -0.019704754 0.09278105 0.23474966
0.16046128 0.24409238 0.23604113 0.23031898 0.26860502 0.19539726 0.10033452 0.25770044
0.18271478 0.059765182 0.30317298 0.39977184 0.37121263 0.21495102 0.033059496 0.19226117
0.33189428 0.17197187 0.22088532 0.115746655 0.2183824 0.38358364 0.123515956 0.2435552
0.35741216 0.115838334 0.30402485 0.17152154 0.20442028 0.25469038 0.22422652 0.07670974
0.027417907 0.12361688 0.2728619 0.013285472 0.1570855 0.30337915 0.15804324 0.3358501
00000000: b075 863e 9d8f fa3e 75b0 fe3e 9cb2 10bf
00000010: 7dc9 923e 093e 8dbe 120a 1d3f b244 c13d
00000020: f79e 2a3f 91a8 ff3e 6769 aa3e 8ede c73e
00000030: 9d0c ab3f 3a78 083e d757 f13e d31b 22bf
00000040: 6472 dbbe 1df7 d83e a6f7 afbd ec31 3bbe
00000050: 1988 48be 770d 0fbe 3af4 e73e be3e b83e
00000060: 10a1 d63d 699f 3bbe 98f0 f5bd 3cf7 d83e
00000070: c833 ecbe cdfd 193f a41a 5dbd 5f0f e43d
00000080: db01 06be 3043 e6bd b91e fa3e 8e9f 4ebf
00000090: 0ef2 72be 3d07 12bf b798 afbd 55e2 063e
000000a0: d421 18be 22df 1a3e cfc7 a93d cfa1 21bd
000000b0: c07b aa3e ff21 873e 256d 553e 7dda 2cbf
000000c0: a04a 7b3e e6b8 a93e b5aa 443e 33e4 fdbd
000000d0: fbef 723e 2f12 6d3e 6998 5a3e 9080 e8bd
000000e0: c7cf d73e 10f7 6e3e 6daf 9a3d aadb 613f
000000f0: aaaa 03bf 4839 613e 25d5 8f3e e348 663e
00000100: c487 5e3e 3eb3 a93d b30f 9c3e 8fdc a93e
00000110: 311d d13d 54d9 483e 08dc 9a3e 89ec 8c3e
00000120: 1c4f 8cbd 372f 4c3e fa53 683e 2162 373e
00000130: 6980 7bbe 6c75 f93d 0207 253e 4da8 a13e
00000140: a209 623e 1248 803e 028e 263e b58c 713e
00000150: 8526 0c3e 00da 063e 1980 ab3e c92a a23e
00000160: 73f7 883e a142 673e e0a3 913e fe6f db3d
00000170: 6cd0 633e e6d3 563e 4174 94bc aba8 373e
00000180: f700 373e b83b 403d fc38 de3e 6569 d33e
00000190: e553 ec3e 657e 433e 53ac 2b3e 5471 053e
000001a0: a51c 9b3e fe48 373e 9a48 6d3e c079 533e
000001b0: c821 6d3e 9a65 c93e d58c 8a3e 0bc2 323e
000001c0: f150 693e 3484 72bd 9a1f 913e 679f 663e
000001d0: 36eb 203e 3790 f63d 2503 9b3e 6589 613e
000001e0: 4ea3 4f3e 49f0 8e3e 403a d13d 727c e3bd
000001f0: dc7a 943d d093 833e 259b 553e 3cc9 523e
00000200: 0147 b23d fff5 04be 57ed 733d 996f 293d
00000210: 8126 873d 1ddf 01be 22f3 80bd 95ab fd3c
00000220: 4c1c f9bd ea32 9cbd a0ba e7bc e6cf 0cbe
00000230: 1635 933c 43bb 7f3b d216 14be 4648 c83c
00000240: a18a 203d e0fa a1bd b761 93bd bca5 b33d
00000250: db6a 55bd fac6 e1bd 291e 0ebe 9103 db3b
00000260: f326 873d bf9e febd bdfe bc3c 5f31 523c
00000270: d88a d3bd faa7 ccbd 0822 98bd 5d92 363d
00000280: 509d d43d 3859 03be 4a11 45bd 5feb 5abd
00000290: b28d 56bd b980 803d 2c4e f0bd 6a8a 8fbd
000002a0: a65e a7bb 21ea a93d 6468 a2bd ac0e afbc
000002b0: 68a0 9abc 4955 06be efda 14bc 05b2 afbd
000002c0: 8c4a 28bd 03ff e3bc 4b5d 0ebe 660c a0bd
000002d0: ff12 793d 1760 db3d 46a3 7c3b 6e67 1b3d
000002e0: eb2c 0f3d 28be 36bd eb7a 893c 71a5 7bbd
000002f0: c543 82bd 7d22 da3c ae6d 8a3c 6145 bcbd
00000300: df3a c73d c4b5 1f3e b26a 5a3e 9c17 563e
00000310: d6ca 6f3e 8eca 743e aec6 ae3e ad2c 143e
00000320: 4e78 adbd 453f 0e3e 266c 5e3e b235 7f3e
00000330: a23b 55be df24 75bd a35d aabc 9193 593e
00000340: 3bfc 903e 132a ac3e 3eb2 693e 8a95 093e
00000350: 62f7 693d dd6b a1bc fe03 be3d 3762 703e
00000360: f64f 243e 5af3 793e c4b4 713e bdd8 6b3e
00000370: 9986 893e 3816 483e 2f7c cd3d 50f1 833e
00000380: 9519 3b3e 56cc 743d 7d39 9b3e e5ae cc3e
00000390: 950f be3e 1f1c 5c3e 6569 073d 1de0 443e
000003a0: 0cee a93e 6519 303e c32f 623e 950c ed3d
000003b0: a39f 5f3e 1365 c43e eff5 fc3d 8966 793e
000003c0: bafe b63e a63c ed3d 25a9 9b3e 58a3 2f3e
000003d0: 8d53 513e c766 823e a39b 653e ff19 9d3d
000003e0: 859b e03c d92a fd3d 8eb4 8b3e 4fab 593c
000003f0: 05db 203e 8354 9b3e 16d6 213e 8bf4 ab3e

fc2.bias f4 [64]
0.24905787 -0.08214273 0.037630178 0.048344694 0.87484086 -0.14066464 0.081961595 0.023319736
-0.12336126 0.09212857 0.07602995 0.539974 -0.09431891 0.38423586 -0.06912684 0.06628422
-0.10864827 -0.04537884 0.3863191 -0.05058142 0.06392311 0.02273238 -0.031545848 -0.08830036
0.08125771 -0.13235384 0.08524079 -0.018857695 0.11305043 0.054039042 0.021107314 -0.0074573355
-0.0052613807 -0.14281736 -0.10077243 0.363941 -0.11113423 0.06957923 -0.02970613 -0.08700814
0.013599031 0.026282774 0.048756916 -0.02133801 0.30686277 0.04643535 0.011331043 -0.08993791
0.0327193 -0.032613806 0.010714223 -0.12791629 0.02308292 0.028549932 -0.2519418 -0.034277838
0.005239716 0.040552083 -0.0694533 0.2682354 -0.08656726 0.037682265 0.12821054 -0.07038648
00000000: 0709 7f3e 733a a8bd 1a22 1a3d 1605 463d
00000010: 92f5 5f3f 640a 10be 7bdb a73d 0809 bf3c
00000020: d4a4 fcbd e7ad bc3d 97b5 9b3d bc3b 0a3f
00000030: 462a c1bd 90ba c43e 5f92 8dbd 05c0 873d
00000040: fc82 debd 2adf 39bd 9ecb c53e 772e 4fbd
00000050: 1fea 823d 4239 ba3c 3836 01bd d2d6 b4bd
00000060: 716a a63d c487 07be b992 ae3d 747b 9abc
00000070: fc86 e73d 0b58 5d3d 3fe9 ac3c aa5c f4bb
00000080: a967 acbb b73e 12be c761 cebd 7a56 ba3e
00000090: 589a e3bd 8e7f 8e3d 455a f3bc 5331 b2bd
000000a0: 78ce 5e3c f94e d73c 55b5 473d 0dcd aebc
000000b0: 1e1d 9d3e fe32 3e3d d7a5 393c 5e31 b8bd
000000c0: ac04 063d 0e96 05bd b58a 2f3c 7dfc 02be
000000d0: 6418 bd3c 8ce1 e93c 84fe 80be eb66 0cbd
000000e0: ecb1 ab3b f119 263d 883d 8ebd 2656 893e
000000f0: 2d4a b1bd b858 1a3d a049 033e c926 90bd

fc3.weight f4 [1, 64]
-1.0292882 0.2665357 -0.086120375 0.30614305 -2.1114442 -0.04935112 0.26674154 0.28543988
0.024298705 0.26966935 -0.09821343 -1.9566714 -0.024104353 -2.1271353 -0.07883348 -0.046177864
-1.0654722 -0.014791333 -2.1777067 0.26926428 0.28250372 0.3112565 -0.013240859 0.2524812
0.2325864 0.26318976 -0.1102724 0.26962435 -1.3704157 -1.6183144 -0.005241975 0.33160225
0.26638103 0.0070221443 -0.046393555 -1.0878772 0.003894195 0.23292233 0.0044631446 -0.0315646
0.33312297 -0.029931903 -0.105900705 0.29944193 -0.7225425 0.32603362 -0.07130502 0.36088985
0.2394751 0.30503204 -0.007980503 0.3446177 0.33502775 0.26930594 -1.9093891 0.3564928
0.31400013 0.32392508 0.36539257 -2.057249 -1.9300355 0.27937445 -2.1291094 -0.08557231
00000000: b7bf 83bf 5e77 883e e15f b0bd c8be 9c3e
00000010: e721 07c0 6624 4abd 5992 883e 2d25 923e
00000020: 140e c73c 1a12 8a3e 1f24 c9bd 3574 fabf
00000030: 7e76 c5bc fc22 08c0 7373 a1bd 0025 3dbd
00000040: 6561 88bf 5957 72bc 8c5f 0bc0 02dd 893e
00000050: 54a4 903e 035d 9f3e 30f0 58bc 3745 813e
00000060: 212b 6e3e cfc0 863e 7fd6 e1bd 340c 8a3e
00000070: c869 afbf ed24 cfbf e0c4 abbb c5c7 a93e
00000080: 1863 883e 041a e63b 2b07 3ebd 8f3f 8bbf
00000090: c035 7f3b 3183 6e3e 923f 923b e249 01bd
000000a0: 188f aa3e c033 f5bc 78e2 d8bd 7450 993e
000000b0: 8cf8 38bf e1ed a63e 5e08 92bd 8ec6 b83e
000000c0: f638 753e 292d 9c3e a8c0 02bc bb71 b03e
000000d0: c288 ab3e 78e2 893e dd66 f4bf 3986 b63e
000000e0: a0c4 a03e 82d9 a53e bc14 bb3e f8a9 03c0
000000f0: 670b f7bf 2b0a 8f3e 5443 08c0 8940 afbd
